backend/model/dcrnn_lucknow.pth (torch, 34636 bytes, 10 tensors)

diff_conv1.bias f4 [32]
000000 7c 56 47 bc 5b 08 51 3d 2e 49 94 3c 0b 12 6b bc
       -0.012166616 0.05103336 0.018101301 -0.0143475635
000010 51 39 c3 3d 0e 27 42 3d 2d 23 53 3d 7e 2d 34 3d
       0.095324166 0.047400527 0.051547218 0.043988697
000020 87 35 8a 3d ad 57 55 bd 00 00 00 00 3c c1 a9 3c
       0.06748491 -0.052085567 0.0 0.020722024
000030 a1 f4 09 3d 69 25 bf 3d 2d 32 db 3c 5b 8e 5f 3d
       0.033680562 0.09333307 0.026757324 0.05457912
000040 b4 48 ab bb d2 40 b2 3a 47 50 20 3d 00 00 00 00
       -0.0052271727 0.001359964 0.03913906 0.0
000050 4e 98 20 3d f0 83 1a 3e fd 31 89 bc be 27 06 3c
       0.03920775 0.15089393 -0.01674747 0.008188186
000060 58 93 48 3c 9f 88 8b bb ba 34 70 3d 00 00 00 00
       0.012242161 -0.00425823 0.058644034 0.0
000070 00 00 00 00 00 00 00 00 50 e2 86 3d 00 00 00 00
       0.0 0.0 0.065861344 0.0

diff_conv1.lin.weight f4 [32, 5]
000000 85 90 d1 bd 01 af cb 3d 20 98 d2 bc a7 3a eb 3e
       -0.10232643 0.09945489 -0.025707304 0.45943186
000010 f5 60 a4 3d 40 d8 69 be 8e 34 a7 3e 84 7e d5 3d
       0.080263056 -0.22836399 0.32657284 0.104245216
000020 25 55 50 be da 40 e6 bd fe f8 b1 bd 11 3c d4 3e
       -0.2034498 -0.11242838 -0.086900696 0.41452077
000030 f1 8d ce be f0 2a 46 be 25 dd 82 bd 61 f0 4d be
       -0.40342668 -0.19352317 -0.06389836 -0.20111229
000040 96 5f 42 3e a2 fc c6 3d ab dd b9 bd 17 d6 c5 3e
       0.18981776 0.09716155 -0.09075483 0.386399
000050 09 54 ab be a9 ca b2 3e 1f 2e d2 3c 7a 97 df be
       -0.3346255 0.34920242 0.025656758 -0.43670255
000060 32 ed 1c 3e c4 e9 c4 3e 6d 6c dd 3e 6b 19 8c 3e
       0.15324858 0.384596 0.43246785 0.27363142
000070 78 f6 34 3e 9d 2a e1 bd 4d e5 7a 3d f6 a2 28 3e
       0.17672145 -0.10994456 0.061253835 0.16468415
000080 0d c7 24 3d 34 34 65 be b6 2e bc 3e 60 e3 6e be
       0.040228892 -0.22383195 0.36754388 -0.23328924
000090 78 d8 ce 3e ee 18 93 3d 9b 87 c7 be bc 1a ac 3d
       0.40399528 0.07182489 -0.38970646 0.08403537
0000a0 e5 98 c4 be 2c 42 5d bd 00 f2 5c 3c a4 fd c9 be
       -0.383979 -0.054018185 0.013485432 -0.39451325
0000b0 8e a9 ce 3d 7a 2e c3 3e 68 d6 bb be 4e 63 e9 bd
       0.10090934 0.38121396 -0.36687016 -0.11395894
0000c0 6a d5 6e 3e cd 48 3b bd fe 8c 05 be 1b 2c 00 be
       0.23323599 -0.045723725 -0.13042066 -0.12516825
0000d0 5f d7 a6 bd 1c bf b4 bd 24 e4 a3 3e 93 42 7f be
       -0.081465475 -0.08825514 0.32009995 -0.2492774
0000e0 06 e4 9e 3e c7 c3 8f 3e 12 4a bf 3e b2 40 0b be
       0.31033343 0.28079054 0.373612 -0.13598898
0000f0 15 b8 11 be 3b 6e 6a be 8c d6 42 3d 31 d5 c4 be
       -0.14230378 -0.22893612 0.04756789 -0.38443902
000100 c3 db 9a 3e fa 52 3e 3e 2a 64 ae be fc 71 03 3e
       0.3024579 0.1858634 -0.34060794 0.1283645
000110 ee 99 ce 3e d5 e5 e8 3e 50 80 9e 3e c2 5e 6e be
       0.40351814 0.45487848 0.3095727 -0.23278335
000120 0e f7 f6 3d 5e 1c c7 3e 70 59 87 3e 79 ef 24 be
       0.12058841 0.3888883 0.26435423 -0.16106977
000130 c5 81 b6 be 9f 4b a8 3e 73 36 3f 3e cb 0c 90 3e
       -0.3564588 0.32870194 0.18673114 0.2813476
000140 da 07 aa bc 10 72 87 3e 24 5f 4c be e9 14 8e 3e
       -0.020755697 0.2645421 -0.19958168 0.27750328
000150 84 81 9d 3c 28 52 82 3e 0b 20 7f be fe ab fa 3e
       0.019226797 0.25453305 -0.24914567 0.48959345
000160 12 94 cb 3e 48 7b f2 3e d9 73 13 ba 49 01 74 3e
       0.39761406 0.4735968 -0.00056248676 0.23828615
000170 10 0d 0a 3e a1 57 a9 bc 73 7d 32 3d d8 a8 d3 ba
       0.13481545 -0.020671668 0.04357667 -0.0016148342
000180 89 fd d3 bd 58 7c b8 be 86 22 41 bd 49 e0 8e 3e
       -0.10351092 -0.36032367 -0.047152065 0.2790549
000190 91 be b7 be 59 38 99 3e d4 fe 45 3e 60 92 b7 3c
       -0.35887578 0.29925802 0.1933549 0.022408664
0001a0 cb 40 58 3e 9e f8 bb 3d 21 b9 85 be 51 bf c5 3e
       0.21118467 0.09178279 -0.26117805 0.38622525
0001b0 4a 75 7f bd aa 4b 07 3f 36 77 6e be 9f 8e 23 be
       -0.062367715 0.5284983 -0.23287663 -0.15972374
0001c0 57 fc 8b 3d 14 d7 a6 3e ff e7 2a bd 09 d2 28 3e
       0.068352394 0.32585967 -0.041725155 0.16486372
0001d0 9a 4e 5e be 0f 9b d7 3e 93 b2 23 bd aa bf f8 3d
       -0.21709672 0.42110488 -0.039965224 0.12145932
0001e0 95 94 a7 3e f4 5c 70 be 6c 15 ba 3c 22 e7 39 3d
       0.32730547 -0.23472959 0.022715293 0.04538644
0001f0 18 d3 a3 3d 4a 3f 8d 3e 87 0b c4 3c ca e7 96 be
       0.07999247 0.27587348 0.023931278 -0.29473716
000200 33 4d ae 3e e1 c8 45 be 63 bf 39 bd 74 62 a3 3e
       0.34043273 -0.1931491 -0.045348536 0.3191105
000210 76 34 5d be 7d c4 d9 be ce 66 14 3e 59 e3 50 3e
       -0.21602044 -0.4253272 0.14492342 0.20399226
000220 9e 07 4d be 38 c3 72 be 8f 7f 42 bd 2f 2a ca 3b
       -0.20022437 -0.23707283 -0.04748493 0.0061695795
000230 20 c2 ab 3e 07 c2 87 be b1 8f 3c ba b2 3f 39 be
       0.33546543 -0.2651522 -0.00071930425 -0.18090704
000240 79 94 32 be a4 ed 57 3e df a3 bd be 6c d0 4f 3e
       -0.1743945 0.21086746 -0.37039086 0.2029435
000250 29 e6 17 bd 94 0f 73 be a0 97 ba be ca 10 4c 3e
       -0.037084732 -0.23736411 -0.36443806 0.1992828
000260 12 f4 e8 3c 67 ee d5 be f5 11 9f 3e 25 d8 63 be
       0.028436694 -0.4178345 0.31068388 -0.22250421
000270 4c c6 ac be 73 dc 04 be 37 4a 2d 3e 03 b9 ba be
       -0.33745039 -0.1297472 0.16922842 -0.36469278

diff_conv2.bias f4 [32]
000000 13 34 8f 3c 0c fe 38 3d 00 00 00 00 05 d4 28 3d
       0.017480886 0.045164153 0.0 0.041217823
000010 00 00 00 00 7f 4a 3f 3d 7a 16 94 3c b5 aa 04 3d
       0.0 0.046701904 0.018077124 0.03238936
000020 8c 92 4a 3c 00 00 00 00 c0 0c 6a 3d b1 9e 63 bc
       0.012364041 0.0 0.057141066 -0.013892815
000030 a4 4b df 3c 8e 9a 0e 3c 00 00 00 00 64 aa 0a 3d
       0.027257748 0.008703841 0.0 0.033853903
000040 00 00 00 00 be 70 08 3d 3a a5 ac bb 02 ee a4 3d
       0.0 0.033310644 -0.00526872 0.08053209
000050 2f 9a 2a 3d 7e 10 f0 3c a2 ca 01 3d f6 39 2c 3d
       0.041650947 0.02930474 0.031687386 0.042047463
000060 7b 60 a6 bc 9d 65 06 3d b3 41 9d bc 3a bb 97 bb
       -0.020309677 0.03281175 -0.019196367 -0.0046304734
000070 00 00 00 00 37 08 4d 3d 00 00 00 00 3d 1c 06 3d
       0.0 0.050056662 0.0 0.032741774

diff_conv2.lin.weight f4 [32, 32]
000000 3c cb 91 bd 88 08 19 3e 5b 39 49 bc 03 59 65 be
       -0.07118842 0.1494466 -0.012281741 -0.22397237
000010 2b b1 29 be 5f 27 8d 3d ce ab 8f bc 80 7c 07 3d
       -0.1657149 0.06892275 -0.017537978 0.033077717
000020 e9 17 12 3e b0 38 f5 3b db 72 a5 bd eb 3d 1a 3e
       0.14266934 0.0074835643 -0.080785476 0.15062682
000030 4a 98 a3 3d eb df c4 3e 46 40 33 3d f5 94 6b 3e
       0.07988031 0.38452086 0.043762468 0.23006041
000040 8a 38 5f 3e ea 55 88 3e 8d b6 21 3e 08 a5 ba bd
       0.21798912 0.26628047 0.15792294 -0.091135085
000050 91 27 62 3c 19 53 8e 3d 03 39 84 3e ff 9f f0 bd
       0.013803379 0.06949443 0.25824746 -0.11749267
000060 f8 09 60 be 87 65 1c 3e 93 c2 36 3e 45 7e 54 3e
       -0.21878803 0.15273105 0.17847662 0.20751293
000070 6f b7 27 be 13 2e 4b 3d e9 e0 54 3c 35 5b 9b be
       -0.16378568 0.049604487 0.012993076 -0.30343023
000080 6f ce 39 bd dc 64 68 be fe 14 ac be 79 81 7a be
       -0.045362886 -0.22694725 -0.33609766 -0.24463452
000090 f0 c8 4e be 43 0c 60 3c fc 43 bc 3c c4 08 75 be
       -0.20193839 0.013674798 0.022981636 -0.23929125
0000a0 7c 60 57 bc ae 70 0e 3e 2f eb 84 3d ea dd 0f bc
       -0.013145562 0.13910171 0.0649017 -0.008780936
0000b0 b0 06 3f be 9b 7d d8 3e 93 35 32 3e 5a 27 d2 bd
       -0.18654895 0.4228333 0.1740325 -0.10261412
0000c0 07 b6 52 be 95 a1 ce 3e 36 05 8b be 7f d9 9b be
       -0.2057725 0.40357652 -0.27152413 -0.30439374
0000d0 7b bc bf bd ad fe b3 3e 5c 5b 9d 3d 0a 00 8d 3e
       -0.09362122 0.3515524 0.07683441 0.27539092
0000e0 dc 35 86 3e 17 e9 c8 3d 8e b4 c0 be b3 79 2a 3e
       0.26212966 0.09810083 -0.37637752 0.16647987
0000f0 1d 70 73 be b7 63 7e 3e 43 b6 18 be a5 ee c9 3c
       -0.23773237 0.24842726 -0.14913277 0.024649927
000100 12 f2 e2 bc 1d d3 80 3e b8 c8 49 bd d0 b4 58 be
       -0.027703319 0.25161067 -0.049263686 -0.21162724
000110 47 a5 cd bd eb 5b 82 3e 95 08 98 3e 8e 70 c7 bd
       -0.1004129 0.25460753 0.29694048 -0.09738265
000120 00 11 87 bb c3 8d 08 be 75 d4 63 bd 88 fd 88 be
       -0.0041218996 -0.13335328 -0.055622537 -0.2675593
000130 a1 ff 5e 3e 83 d7 fd bc c9 99 fc 3d 39 52 8f be
       0.21777202 -0.030986553 0.1233402 -0.27992418
000140 b7 07 c8 bd c2 a0 ac bd 11 50 57 be 3d 37 71 3e
       -0.097670965 -0.084290996 -0.21026637 0.23556228
000150 c2 7e 53 bc 4e fd 04 3d 9d 1e 38 bc 1c 52 4e be
       -0.012908639 0.032468133 -0.0112377675 -0.2014851
000160 03 25 5f bd 35 d0 75 be 0c 4b 02 3d 1b 5a 83 be
       -0.054478657 -0.24005206 0.03180985 -0.25654683
000170 e4 dd 19 be f8 b2 81 3d 5e b0 4a be f8 9c 8c 3e
       -0.15026051 0.06332964 -0.19793841 0.27463508
000180 c6 91 94 be 89 9d b5 ba 90 3a f7 3d d3 3d 52 be
       -0.29017466 -0.0013856153 0.12071717 -0.20531397
000190 b6 fb 51 3e 6c 4f 92 3e e2 29 95 3e a9 bb 2e 3e
       0.20506176 0.2857622 0.29133517 0.17063774
0001a0 5c 52 8b 3e 97 4b 13 bd dd e7 07 3d 76 4d ca bd
       0.27211273 -0.03596076 0.033180106 -0.09878056
0001b0 92 01 97 bc d2 d2 10 be de 2a 0c 3e e4 f2 63 be
       -0.018433366 -0.14142922 0.13688228 -0.22260624
0001c0 08 f6 9b be f6 2e 70 be 02 8b 8f 3e 01 2b 8d 3e
       -0.30461144 -0.23455414 0.28035742 0.27571872
0001d0 0c ef 9c 3e 42 c3 7f bd 83 d3 68 3d cc de 42 be
       0.30651128 -0.06244207 0.05684234 -0.19030303
0001e0 40 c3 a8 be f1 f8 52 3e 58 e7 af 3e 5f 41 2d be
       -0.32961464 0.20602776 0.3435619 -0.16919468
0001f0 06 d5 7e 3e 7e cc 29 3d f0 66 f4 bd 5f 7b a5 3d
       0.2488595 0.041454785 -0.11933696 0.08080172
000200 ef 59 84 be 26 0a 57 be 9f f2 89 bd a2 a7 91 be
       -0.25849864 -0.20999965 -0.067357294 -0.28448206
000210 59 03 5b 3e 50 26 2b be e1 55 02 bc ac 58 ac bc
       0.21387996 -0.16713834 -0.007955045 -0.021038376
000220 ac a7 e8 bd 9b fc 18 3e 2a 41 65 3d 31 ab 02 3e
       -0.11360106 0.14940111 0.05597035 0.12760617
000230 8e ad 4c be 5c b6 21 3e b8 8d 76 be 2d 80 f2 bc
       -0.19988081 0.15792221 -0.24077499 -0.029602135
000240 21 86 60 be 70 3f 5d bd 2b 42 02 be b6 dc 3e be
       -0.21926166 -0.054015577 -0.12720554 -0.18638882
000250 25 23 d8 bd 2e 0f 9c 3a 25 05 0a be 19 c4 cc 3d
       -0.10553578 0.0011906379 -0.13478525 0.0999834
000260 08 94 41 3e a7 9d 95 3e cd 20 91 3e 46 66 eb 3d
       0.18904126 0.29221842 0.28345338 0.114941165
000270 bd 8d e4 bb 08 82 51 b9 18 5d 1e be 3a 5a 59 3d
       -0.0069749043 -0.00019980234 -0.154652 0.053064562
000280 76 99 50 3d 2c e8 42 3e cc 70 24 be 35 5a 05 3e
       0.0509276 0.19033879 -0.16058654 0.13022693
000290 64 42 f1 3d 3b c3 3b 3e 73 cb 03 3e 51 3c fb bc
       0.11780241 0.18336193 0.12870578 -0.03066841
0002a0 1d fd 68 bd 3c aa e0 3c 0c 68 8c 3e 7b 9e 2c be
       -0.056882013 0.027424924 0.2742313 -0.1685733
0002b0 81 aa 28 be ae 8e d7 bd d6 a9 87 be b3 a2 67 bd
       -0.16471292 -0.10525261 -0.26496762 -0.056551646
0002c0 c0 8e 66 be 33 7a 82 be d9 66 4e 3e 01 7f cd bc
       -0.22515392 -0.25483856 0.20156421 -0.025084974
0002d0 a6 b8 b2 3c f4 3d bd 3e 5a 00 e7 bd 59 90 91 3e
       0.021816563 0.3696133 -0.11279364 0.2843044
0002e0 23 b8 05 3e cc 46 a0 bc 6b 65 06 bd 3a 3d 93 be
       0.13058524 -0.019565009 -0.032811563 -0.2875765
0002f0 66 6f 89 be 28 fe 81 be 94 fe 02 3e c6 79 29 3e
       -0.26842803 -0.25389218 0.12792426 0.16550359
000300 25 21 8b 3e ba 05 59 3d 64 65 26 3e 06 6c 07 be
       0.27173725 0.052983977 0.16249615 -0.13224801
000310 f0 23 89 3e 18 a5 b9 bd 5e 9b 5e bc b2 09 c4 bc
       0.2678523 -0.09064692 -0.013586847 -0.023930404
000320 e6 10 ba 3e 53 d8 a0 3d 7b 0f 44 be b7 1a fb bd
       0.36341017 0.078537606 -0.1914653 -0.12260955
000330 a9 8b 22 3e 0e 3f 3b be 64 45 b0 3d 26 5c 18 be
       0.15873589 -0.18285772 0.08606985 -0.14878902
000340 a2 ae 8f 3e c2 3f 9d be 53 36 96 bc 23 96 30 3d
       0.28062922 -0.30712706 -0.01833645 0.04311193
000350 dd 0a 0d 3e f0 33 1b be 09 2e a8 3d 4f e9 90 be
       0.13773675 -0.15156531 0.082119055 -0.28303
000360 52 90 07 3e 28 4d 14 3e dc e7 90 bd 5e 1d b4 3d
       0.13238648 0.14482558 -0.07075474 0.08794664
000370 3e 0a 98 bd 59 5e cc bd 6d ff 4e 3d 72 d5 52 be
       -0.074238285 -0.09978933 0.05053656 -0.20589235
000380 76 f1 95 be 2c 90 6d 3e 52 4e 2f 3e 15 f4 4e 3e
       -0.29285783 0.23199528 0.1711972 0.20210297
000390 c4 2f 22 3e 5d 37 83 3e 96 ad 9b bd dd 0e 87 3e
       0.15838534 0.25628176 -0.07601468 0.26378527
0003a0 64 32 be 3e 43 d4 ca bc 71 db 74 3d a3 98 9d bd
       0.3714782 -0.024759417 0.059779588 -0.07695129
0003b0 ea b5 68 3e e2 d8 79 3e 79 1f 68 be 0c 36 9a be
       0.22725645 0.2439914 -0.22668256 -0.3011936
0003c0 5f ee f5 bd 33 e3 f4 bd 6d 65 1b 3e 3f 11 18 bd
       -0.12008356 -0.11957397 0.1517541 -0.037125822
0003d0 2e a8 ab 3e 39 57 1c 3d 7b ed ec 3c 18 86 95 bd
       0.33526748 0.03816912 0.028921833 -0.07300967
0003e0 a4 60 a4 3d ae 4f 12 3e d7 b8 ff bd 12 f8 97 3e
       0.08026245 0.14288208 -0.12486427 0.2968145
0003f0 2e 94 bb 3d 73 12 5c be b8 6f 25 3e ea 02 87 be
       0.091591224 -0.21491413 0.16155899 -0.2636941

gru.weight_ih_l0 f4 [96, 32]
000000 45 04 99 bd 6c cf 85 be b7 46 b2 3d 07 05 92 3c
       -0.074715175 -0.26134813 0.08704894 0.017824663
000010 c8 b0 11 be fb e4 6f 3c 67 cc 81 bd e3 fb 08 3e
       -0.14227593 0.014641996 -0.06337815 0.13377337
000020 c5 13 6a 3d c7 de 0e 3e be f6 a1 bc ae ac 4a 3c
       0.05714776 0.1395217 -0.019770976 0.012370272
000030 fd c3 a0 bd a9 5c 91 bd b3 59 92 bc f8 52 ce 3d
       -0.07849882 -0.07097752 -0.017865038 0.10074419
000040 c3 89 2b 3e 58 ef 4f be be 68 a2 bd aa 77 7e 3e
       0.1675177 -0.20306146 -0.07930134 0.24850336
000050 3c 05 dd 3b 4e b3 72 bd 8b 83 76 bb 13 92 a2 3d
       0.0067450088 -0.05925303 -0.0037615027 0.07938018
000060 ee 6e 28 3e 63 5c 58 be de 0b ad 3a 48 89 13 bd
       0.16448566 -0.21128993 0.0013202389 -0.036019593
000070 37 24 14 3d 7e 98 a5 bd bf 2f 3a bd e3 9f 2d be
       0.03616735 -0.08085726 -0.04545569 -0.16955523
000080 63 00 b8 bd ca 7c 19 be 58 15 19 be 34 44 ca 3c
       -0.08984449 -0.1498901 -0.14949548 0.024690725
000090 55 17 c2 3b b2 99 0e 3e cc 09 d3 bd 8f f0 3e bd
       0.0059231916 0.13925818 -0.10304603 -0.046616133
0000a0 f0 a6 35 be dc 17 0c be 39 b1 c5 bd 2b 25 e4 3c
       -0.17739463 -0.13680977 -0.09652943 0.027849754
0000b0 22 80 ba 3d 83 c2 c1 bd 7f 6c 09 be 53 10 94 3d
       0.09106471 -0.09460928 -0.13420294 0.07229676
0000c0 e8 8f ea bc ed a1 5a 3d ba 57 e7 bd 6a 24 27 be
       -0.028633073 0.05337708 -0.112960294 -0.16322485
0000d0 cd 1c e0 3b 23 9e 8c bd aa 96 05 3e 77 83 f2 bd
       0.006839371 -0.068661 0.13045755 -0.11841481
0000e0 5b cf 44 3b d7 1b 45 be df 95 15 bc ff fa 3e 3e
       0.003003082 -0.19248901 -0.00912997 0.18650435
0000f0 3f 22 d5 bd 18 f5 e2 3c 22 05 11 be 1a 95 3a 3e
       -0.104069225 0.02770476 -0.14162114 0.1822094
000100 aa 6e f3 bd 16 76 41 3e 87 b1 8d bd 9e 6e 06 bd
       -0.11886342 0.18892702 -0.06918626 -0.032820337
000110 91 5e d0 3d 98 5b ab bb f8 eb 1f 3e 96 19 da 3d
       0.10174287 -0.0052294247 0.15617359 0.106494114
000120 6c 0b 04 3e f8 2b 81 3d 09 88 91 bd 8b 50 28 be
       0.12894982 0.063072145 -0.07106025 -0.16436975
000130 d3 d6 34 3e 41 a0 4d bd d0 8b ed 3d 9e 92 98 bd
       0.17660074 -0.05020166 0.11598933 -0.0744984
000140 79 3b 98 3d fd 5d bd 3d 2d 7c ad 3d 4c 01 f2 bd
       0.074332185 0.092464425 0.0847095 -0.118166536
000150 c4 33 31 bd 6f 54 a4 3d f9 a4 86 3d ae ac 30 bd
       -0.04326226 0.08023917 0.06574435 -0.04313343
000160 58 ad 21 3e 67 e6 02 3e 82 14 27 3a eb 31 d3 3d
       0.15788782 0.12783204 0.00063736003 0.103122555
000170 0c fa 17 3e ff dc 95 3d 56 bf af 3d f4 45 66 3d
       0.14841479 0.07317542 0.08581416 0.056219056
000180 1e b5 c5 bd f3 82 70 bd 39 20 12 3d 77 e3 10 3d
       -0.09653686 -0.058718633 0.03567526 0.035373177
000190 ff 02 ce 3d ba 9e 05 3e 89 8a 0e 3e 8b 71 0e bd
       0.10059165 0.1304883 0.13920034 -0.03477625
0001a0 a6 73 9b 3c 7c 2b e4 bd 45 a4 a2 3d 1c 87 86 3e
       0.018976044 -0.111411065 0.07941488 0.26274955
0001b0 b2 45 06 3e e0 3a df 3d 86 3c 12 3e 23 1f 15 be
       0.13112524 0.108999014 0.142809 -0.14562659
0001c0 6a f6 b7 bc 95 88 b0 3d 04 95 1b be ba 0b 2b bd
       -0.022456367 0.08619801 -0.15193564 -0.04175923
0001d0 88 c1 21 bd 5d 41 ae 3c 55 42 11 3e 02 96 47 3c
       -0.039491206 0.021271402 0.1418546 0.012181761
0001e0 d2 cf 56 3d 23 dc 92 be 2d 55 86 3d bb 96 0b 3e
       0.052444287 -0.28683576 0.06559215 0.13631718
0001f0 c8 68 a5 bc 2b 9d 17 be 20 cc 88 3c 20 c1 d0 3d
       -0.020191565 -0.14806049 0.016698897 0.10193086
000200 83 e9 23 3e 4a 96 65 3d c9 ae af bd a3 f0 14 ba
       0.16007046 0.05605153 -0.085782595 -0.00056816096
000210 4b 61 b9 3b 5b bb 1e bd 1e 87 fd 3c e9 e0 cc bd
       0.00565735 -0.038752895 0.030948218 -0.10003836
000220 97 38 3e bc d4 b5 7e 3d 0d 45 76 bd f5 d1 49 be
       -0.011610172 0.062185124 -0.060124446 -0.19708999
000230 d6 35 69 bd 64 41 30 3d 7d bf 25 3e f1 a7 d0 bd
       -0.056936108 0.04303111 0.16186328 -0.10188282
000240 60 b7 43 bc 3d a2 34 3e ee 80 4e bd 2a 05 c7 3d
       -0.0119455755 0.17640014 -0.050415926 0.09717782
000250 5b ec bd bc 67 a1 c7 3a 53 7a 15 be 07 ed 3b 3e
       -0.023183992 0.0015230597 -0.14597444 0.18352138
000260 4e 8e f1 3b 43 d8 bb bd 91 05 83 bc 33 0d 3a 3e
       0.0073717004 -0.09172108 -0.015993865 0.18169098
000270 27 71 04 be a1 ca 33 bd 0f 5a 0f be 4b 31 8f bc
       -0.12933789 -0.043894414 -0.13999198 -0.01747956
000280 45 97 d2 bc 64 e4 e8 bd 84 f4 33 bd 3f d8 fc bd
       -0.025706897 -0.11371687 -0.04393436 -0.12345933
000290 d8 f0 f9 3d 72 fb d1 bc 40 c8 e9 bd 3a b0 49 bd
       0.122041404 -0.025632594 -0.11415148 -0.04924033
0002a0 a0 9a dc bd 7a 51 c9 bc f5 71 23 3d 03 d9 44 3d
       -0.1077168 -0.024574984 0.0399036 0.04805852
0002b0 37 70 35 bd 69 56 b4 3c be ea d6 3b 05 17 90 3d
       -0.04429647 0.02201386 0.006558745 0.070356406
0002c0 ce e8 28 be 1c 39 c7 bd 90 07 dd bd c9 b6 31 3e
       -0.16495058 -0.097276896 -0.10792458 0.17354883
0002d0 29 2a 2c bd 23 50 8d 3d 1b ca 41 3e 8d 78 4b 3e
       -0.042032395 0.069000505 0.18924753 0.19870205
0002e0 cf 95 0c 3e 32 83 be bc 2c e7 06 3e 19 d0 d9 3d
       0.13729022 -0.023255918 0.13174123 0.106353946
0002f0 4e e9 d6 3d 13 3c 15 be 57 53 8d bc 38 29 16 3e
       0.10493718 -0.14573698 -0.017251654 0.14664161
000300 2d db 9d 3c bb 7e ab bc 2f d7 d8 3d fb eb 44 bd
       0.01926955 -0.020934453 0.10587918 -0.04807661
000310 89 fc 19 be f2 48 9c 3e c3 14 2f bd 7b b8 8c bd
       -0.15037741 0.30524403 -0.04274441 -0.06871124
000320 2d 69 5c bd b5 e5 e8 bd d7 a5 55 bc 69 fa 9b 3d
       -0.05381124 -0.11371938 -0.013040028 0.07616121
000330 7a cc 69 bd 63 79 dc bd 18 0a 17 3e ba 87 41 3e
       -0.05707977 -0.1076534 0.14749944 0.18899432
000340 f8 19 2d 3e ac 41 19 3e d2 93 93 bd e3 95 b5 bb
       0.16904438 0.14966458 -0.07205929 -0.0055415495
000350 b2 48 eb 3d 11 f9 71 3e 4b 2c 68 3e 04 c9 89 3d
       0.11488475 0.23630168 0.22673146 0.06727794
000360 56 e8 42 3e bf bc f8 3c 8d 11 00 3e ad c5 27 bd
       0.19033942 0.030363439 0.12506695 -0.040960003
000370 ac ac 8e 3c f8 c3 87 3d 7d 3c ad bd 4b 70 8b 3c
       0.01741632 0.06629175 -0.08458803 0.017021319
000380 f8 77 5b 3e d1 43 83 3e c5 5c 7b bd 24 d1 8a 3e
       0.21432483 0.25637677 -0.06136777 0.27112687
000390 36 77 d3 3d 0b e8 3a 3e 44 b8 4a 3d 11 a5 45 3e
       0.10325472 0.1825258 0.049492136 0.19301249
0003a0 16 d9 26 3d b3 9d 17 3e b1 3f d8 3d 88 95 c5 3b
       0.040734373 0.14806251 0.10559023 0.0060297884
0003b0 2f a1 84 3e 98 98 81 3e fb cf 8a bd d3 38 fa 3d
       0.25904223 0.25311732 -0.067779504 0.122178696
0003c0 87 12 98 bd 9d 35 d1 3d fc 57 9c 3d d2 0b 86 bd
       -0.07425409 0.10215304 0.07633969 -0.06545223
0003d0 be 92 9e bc ff 4e 07 3d 2e 2d 48 3e 15 8e 89 3e
       -0.019357082 0.03303432 0.19548485 0.26866212
0003e0 b0 d3 01 3e 49 98 61 3d 4a 8a fe bd 43 81 6d 3e
       0.12678409 0.05507687 -0.1242872 0.2319384
0003f0 c6 3a 15 be 1d 8b 7d 3e 8d 3e 1b be 29 8a 15 3d
       -0.14573202 0.24760099 -0.1516058 0.036508713

gru.weight_hh_l0 f4 [96, 32]
000000 a2 44 41 bd e7 d1 9d 3c dd ad ed 3c ea d4 7f 3d
       -0.047184594 0.019265128 0.029013569 0.06245891
000010 2f b9 5a 3c 38 32 2a be 21 5b 94 3e 76 a5 e2 bd
       0.013349815 -0.1662072 0.28975776 -0.110667154
000020 ce a8 5d bd 97 4d 19 3e 95 80 2c 3e 64 cb 22 be
       -0.054116063 0.14971004 0.16845925 -0.158979
000030 3d 2c 05 be 6f 29 87 bc 17 0c 30 3e 89 2c 78 3d
       -0.13005157 -0.01649925 0.17192112 0.060589347
000040 f2 a0 47 3e d1 02 91 3d 35 51 ed bd 41 9a 35 be
       0.1949499 0.07080615 -0.11587755 -0.17734624
000050 e9 7a 2c bd 8c 7f 19 be 8c 57 05 be a8 45 af bd
       -0.042109404 -0.14990062 -0.13021678 -0.08558208
000060 0f e9 74 bd ea 6b db 3d 8d 6e da bc 12 c0 07 3e
       -0.059792574 0.10713942 -0.026664043 0.13256863
000070 dd 78 3a 3d 99 0c 7a bd 77 b0 33 be b0 ff 20 be
       0.04552542 -0.06104717 -0.17547785 -0.15722537
000080 51 e2 3f 3e e0 ae ba bd bb 47 4a 3e 94 f8 05 3c
       0.18738677 -0.09115386 0.19753926 0.008176941
000090 13 76 c3 bd 7c fd 94 3d 55 a2 1d 3e 4a a3 1a be
       -0.09544005 0.07274911 0.15393956 -0.15101352
0000a0 79 ee 55 be 94 21 55 bc fa 24 54 be 84 5a e3 3b
       -0.20891751 -0.013008494 -0.2071723 0.0069382805
0000b0 c5 68 88 3d 59 16 28 3e 9a d9 b4 3d 63 e1 8e bd
       0.06660608 0.16414775 0.08830567 -0.06976583
0000c0 9a bb 84 3c fb 26 96 bc 22 c4 37 3e 0a b4 3a be
       0.016202737 -0.018329134 0.17945912 -0.18232742
0000d0 fc 83 27 be a6 18 c6 3d 18 3d 15 be 23 81 20 3e
       -0.16358942 0.0967267 -0.14574087 0.15674262
0000e0 99 c9 02 3e 74 b6 49 bc 26 3c 03 be 54 2c 03 bc
       0.12772216 -0.012311567 -0.12815914 -0.008006174
0000f0 73 35 a1 bd 23 c4 a0 bd 49 ef ff 3d 2c 9d d1 bd
       -0.07871523 -0.0784991 0.12496812 -0.10235056
000100 07 56 f5 3d 87 ae eb 3b cb d6 a5 bb a8 e8 55 3d
       0.11979299 0.007192436 -0.0050610057 0.05222383
000110 2a 3d 0b bd b6 04 0c be e5 ff 01 bd 99 54 14 3e
       -0.033993877 -0.13673672 -0.03173818 0.14485396
000120 d4 41 0d 3e 32 65 e2 3d f1 d7 00 3e f4 ad b0 bd
       0.13794643 0.11054458 0.12582375 -0.08626929
000130 89 26 84 3c 39 04 fd bc 5c e0 a2 3d 50 8d 3d be
       0.016131656 -0.030885803 0.079529494 -0.18510938
000140 aa cd ac bd b6 41 14 be 19 44 78 bb cb 01 6d bd
       -0.08437665 -0.14478192 -0.0037882386 -0.057863038
000150 ab 28 d8 bd 5d 68 65 bd 2d 46 04 3e 2e 8c c1 bc
       -0.10554632 -0.05600773 0.12917395 -0.023626413
000160 0a 3a f8 bc a6 52 f0 3d 7e 42 38 be e1 f5 02 3d
       -0.030301113 0.11734514 -0.17994115 0.03197277
000170 27 ab 7a bc 7c bb 47 3e cb c1 41 3e d7 64 86 3b
       -0.015299595 0.19505113 0.18921582 0.0041013765
000180 26 d0 0c be 11 8f 11 be ca 9a f7 3d 49 22 34 bd
       -0.13751277 -0.14214732 0.120900705 -0.04397801
000190 8a 7f 1b 3e 6c 67 09 3d 81 58 11 3e c6 78 a3 3d
       0.15185371 0.033545896 0.14193918 0.0798202
0001a0 86 cf c8 3c 33 0b 2d 3e f4 b5 2c 3e 8c 8c 2f be
       0.024513017 0.16898803 0.16866285 -0.17143458
0001b0 87 a9 8a 3d 84 55 2b 3e 45 56 7c 3c 20 4e b4 3d
       0.06770616 0.1673184 0.015401428 0.08803964
0001c0 73 25 0c be b7 c7 63 3d fc f0 03 be 6d 9d 44 bd
       -0.1368616 0.055610385 -0.12884897 -0.048001695
0001d0 cc a6 b6 3d 79 f5 59 bd 05 4c 21 3e 8a fb 50 bd
       0.08918533 -0.053212617 0.15751655 -0.051021136
0001e0 47 a1 f3 3d 8a f0 f1 3c f6 e0 28 be 59 38 fe 3d
       0.118959956 0.029533643 -0.16492066 0.12413091
0001f0 70 bd 1f 3e f4 85 e9 bd e9 2a 07 be 9d 76 13 3e
       0.15599608 -0.11402503 -0.13199963 0.14400716
000200 8e 10 1c 3e a2 74 5d 3d e3 d9 ee bd ed 42 29 bd
       0.1524069 0.054066308 -0.11662652 -0.04132359
000210 4a 2c 1a 3e 0a d8 00 3e d1 06 7c 3d 20 4d 8a bd
       0.15055957 0.12582412 0.061529938 -0.06752992
000220 1f 1a d2 bd a6 55 f0 3d 2e 77 34 be 08 ef c3 bd
       -0.102588885 0.11735086 -0.17623588 -0.09567076
000230 cb 77 2f be f8 c4 5c 3d 83 85 78 3d 5d a4 0f bd
       -0.17135541 0.05389878 0.0606742 -0.03506886
000240 8a 69 e5 bd 93 98 74 3d 02 40 89 bd 4e bd 9f bd
       -0.112017706 0.05971582 -0.06701662 -0.07799779
000250 f4 57 ac bd d4 46 ff bd 99 06 a4 b9 0a 02 04 be
       -0.08415213 -0.12464681 -0.00031285433 -0.12891403
000260 3f 6b d4 bd 82 39 97 bd 6d d4 3e 3d 2a 94 a3 bd
       -0.10372018 -0.073840156 0.046589304 -0.079872444
000270 d5 de c5 bd eb 7b c0 3d 09 dd e6 bd 4b 6c 6c 3d
       -0.096616425 0.093986355 -0.11272628 0.057720464
000280 21 2a 2d 3e 30 0d 2d 3e de 23 31 bd 30 f0 b5 bd
       0.16910602 0.16899562 -0.043247096 -0.08883703
000290 0c 84 0d 3e 54 18 fc bd 1e c6 f2 bd e1 6f 67 3d
       0.13819903 -0.12309328 -0.11854194 0.05650318
0002a0 5a 33 7e be 0a 2b 9a bd b9 14 0a 3e 7b ed 27 3e
       -0.24824277 -0.0752774 0.13484468 0.16399185
0002b0 bf 78 e9 3d 68 03 f8 bd 0c 53 b2 bd 6d b4 e1 bb
       0.113999836 -0.12110025 -0.08707246 -0.0068879635
0002c0 da 95 22 be 29 b5 3c bc f6 bd b0 bc 09 d5 d3 bd
       -0.15877476 -0.011517801 -0.021574955 -0.103433676
0002d0 c6 28 b1 bc 14 df 0e 3e 26 0e 3d bd b5 c3 df 3c
       -0.021625888 0.13952285 -0.04615607 0.027315
0002e0 b0 6f 80 3d 71 25 e5 3d ef 13 37 be 3f 1b 2a 3e
       0.06271303 0.11188782 -0.17878698 0.16611956
0002f0 ba 3b ed 3c 27 a2 da 3d a9 6d 84 bd 12 83 31 bd
       0.028959144 0.10675459 -0.064662285 -0.04333789
000300 f9 70 63 3d 9b d9 72 3d da a6 a6 3d a5 60 96 3d
       0.05552766 0.059289556 0.08137293 0.07342652
000310 74 83 5f 3e 2b 11 57 be 2e 85 36 3e 38 07 85 be
       0.21827489 -0.21002643 0.17824242 -0.2598207
000320 3f 12 a7 bd f9 5f 27 be ea 3b 0d bd 10 d7 13 3c
       -0.08157777 -0.16345204 -0.034480967 0.009023443
000330 c3 b0 81 3e 80 a0 cb 3d 10 d6 ad bc d9 d6 02 3e
       0.2533017 0.09942722 -0.021220237 0.1277727
000340 db 17 c2 bc 47 40 9b bd 07 2a 95 3e 0a 24 a9 3c
       -0.023693016 -0.07580619 0.29133627 0.020647068
000350 d3 a6 95 3d 6a ba 1b 3e f9 91 3f be ff c0 c6 3d
       0.0730721 0.1520783 -0.18708028 0.0970478
000360 08 cc 7a be 1b 41 e9 bd 85 a3 df 3d e9 93 8e 3e
       -0.24491894 -0.11389371 0.10919861 0.27847221
000370 b1 0c a5 3c 17 9a 86 be cb b8 e3 bd 5c 69 56 be
       0.020147653 -0.26289436 -0.11119231 -0.20938629
000380 b9 03 f3 bd b8 f5 12 be ef d2 cf 3d b4 8f 1f be
       -0.118659444 -0.14351547 0.10147654 -0.15582162
000390 57 cd 52 bc 56 a5 83 3d 47 e5 7d bd 3f de 1b bd
       -0.01286634 0.0642802 -0.061986234 -0.038053747
0003a0 75 25 13 bd 30 57 0f 3d c8 44 a2 bd 27 a4 a2 3d
       -0.035924394 0.034995258 -0.07923275 0.07941466
0003b0 1f 23 db 3d 12 08 ab 3d df bc f1 3d 0e c9 dc 3d
       0.10700058 0.08351149 0.118036024 0.10780536
0003c0 1c c1 b2 bc a5 12 03 3e 5c 47 1a 3e 50 e7 0e 3e
       -0.021820597 0.12800081 0.15066284 0.13955426
0003d0 8d 87 bf 3d 6d d5 00 bd a7 dd 06 be 37 8e 16 3e
       0.09352026 -0.03145354 -0.13170491 0.14702688
0003e0 8c 2d 30 bd e7 16 9f bc 41 d0 e6 3d 0e c5 94 bc
       -0.043012187 -0.0194201 0.1127019 -0.01816037
0003f0 21 70 44 be 32 e9 94 3e 19 de 84 3d f0 3c 92 3d
       -0.19183399 0.29084164 0.06487674 0.07140529

gru.bias_ih_l0 f4 [96]
000000 d7 2e f8 3d a7 23 20 3e b3 25 f6 bd 7b e1 0d be
       0.12118309 0.156386 -0.12018909 -0.13855545
000010 f7 90 10 3e 05 34 36 3e 7c ee 59 3d 91 ad 1b bd
       0.141178 0.17793281 0.053205952 -0.038007323
000020 9e c6 3e 3e 86 63 07 be 97 83 c3 3d e4 78 64 3e
       0.18630454 -0.13221559 0.09546583 0.22311741
000030 6d 68 0d be 7f ec f9 bb 6f 8e 32 be f4 64 1b 3e
       -0.13809367 -0.0076270695 -0.17437147 0.1517523
000040 62 09 1a be 49 97 be 3d db c8 0c 3d 80 95 c7 3c
       -0.15042642 0.09306199 0.03437124 0.02436328
000050 a3 0a d0 3d 55 45 e0 3d 2f 41 60 be 97 f7 ef 3d
       0.10158279 0.10950724 -0.21899866 0.11717146
000060 b0 66 98 bd 05 88 47 be 03 0e 69 3d 85 33 ce 3d
       -0.07441461 -0.19485481 0.05689813 0.1006842
000070 09 b8 88 bd 2e e4 25 3e ec ea 69 3d 0d 5b d6 3c
       -0.06675727 0.16200325 0.057108805 0.026166463
000080 e8 0a d5 bd d3 f5 b7 3d 98 66 51 be b3 53 3d 3e
       -0.10402471 0.08982434 -0.20449293 0.1848896
000090 20 15 01 3e 57 f0 52 be 90 38 77 39 d2 a3 00 be
       0.12605715 -0.20599495 0.00023576827 -0.12562492
0000a0 0e 3f 16 3d 63 52 00 be e9 0f e1 bd d0 64 5b be
       0.036681227 -0.12531428 -0.10989363 -0.21425176
0000b0 2e 09 38 be 08 48 8a be 39 38 f9 3d 68 47 60 bd
       -0.17972252 -0.2700808 0.12168927 -0.0547556
0000c0 ed 06 6c bd 71 92 2c bc 6b 80 7f be af 23 c4 3d
       -0.057623792 -0.010532961 -0.24951331 0.095771186
0000d0 b7 32 96 bd 76 aa f9 bc 3b 08 79 3d 31 23 75 3d
       -0.07333892 -0.03047679 0.060798865 0.059848014
0000e0 e0 4c 42 be 42 c8 05 be 6b 32 57 bd 0f c8 b7 3c
       -0.18974638 -0.13064674 -0.052538317 0.022434263
0000f0 d1 81 7b bd 97 21 14 be 20 f4 a6 3d 05 81 08 be
       -0.0614031 -0.14465939 0.08152032 -0.13330467
000100 3d 24 85 bd 59 3b 39 3e 3a 0b b0 3d ed 83 89 3d
       -0.065010525 0.18089046 0.08595891 0.06714616
000110 f5 d2 62 3d 58 49 a2 3d 78 24 0b be b8 bc b5 bd
       0.055376966 0.079241455 -0.1358813 -0.08873886
000120 09 52 98 3d 74 77 1c be d4 c5 2c 3d c5 87 2a 3e
       0.07437522 -0.15279943 0.04218085 0.16653354
000130 89 6e a5 3b dc 86 16 be 93 ac eb bd 50 65 67 bd
       0.005048577 -0.14699882 -0.11507525 -0.056493104
000140 9e d8 13 3e 00 58 35 be e0 75 2a 3e b5 07 00 be
       0.14438102 -0.1770935 0.16646528 -0.1250294
000150 4e e7 12 3e 33 46 46 3e b6 fd 00 be 1a 39 a7 3d
       0.14346048 0.19362716 -0.12596783 0.08165188
000160 48 f0 17 bd 7f 03 e8 bc 64 6c f3 bd f9 ed f8 bd
       -0.037094384 -0.02832198 -0.11885908 -0.12154765
000170 05 45 92 bd ac 20 9d 3d 46 6f d0 3d 29 a6 f9 3d
       -0.07142071 0.07672247 0.10177474 0.12189896

gru.bias_hh_l0 f4 [96]
000000 db 98 04 3e 93 c1 0a bd 9c 67 c9 3d 0f 25 ca bd
       0.12948935 -0.033876013 0.09834215 -0.098703496
000010 46 19 e3 bc 80 20 8b bc 4b bf 00 3e c4 32 d8 bc
       -0.027722012 -0.01698327 0.12572972 -0.026391394
000020 8a 6d b5 bd 9e 94 c1 3c 8a f8 17 3e d5 fb 82 3d
       -0.088587835 0.023630437 0.14840904 0.063956894
000030 24 b1 a7 3d d9 54 af bc 98 d4 15 be 6a 38 9f 3d
       0.08188084 -0.021402763 -0.1463188 0.07774432
000040 2b 99 20 3e 19 f7 35 3d ed d1 de 3d b2 07 6a 3d
       0.15683429 0.044425104 0.10879884 0.057136245
000050 1a 9f 54 bd cf 72 b4 3c e1 ad 1e bd 7c 89 c9 3c
       -0.051909544 0.022027401 -0.038740043 0.02460169
000060 5d 0f d8 3d 1b c4 36 be f7 f5 a8 bc 98 e5 86 3d
       0.10549805 -0.17848246 -0.020625098 0.0658676
000070 55 34 fc bc 40 7a 65 3d c2 85 e5 bd fe da ea bd
       -0.030786673 0.05602479 -0.11207153 -0.11467551
000080 de c4 74 be ac 2d b9 bd 5f bb fa bd 40 aa b5 bd
       -0.23903224 -0.09041914 -0.122427694 -0.08870363
000090 36 8a c1 bd d9 17 46 be 3e 10 8b 3c a4 91 51 3d
       -0.0945019 -0.19345035 0.016975518 0.051164284
0000a0 a6 8f ee bc 1c 88 41 be 5c d9 4b bd 6e f5 df bd
       -0.029121231 -0.18899578 -0.049767837 -0.10935484
0000b0 ae ab 37 bd 5d 25 f5 bd 8a b9 3d 3e 92 00 11 3e
       -0.04484146 -0.11970017 0.18527809 0.14160374
0000c0 11 b5 10 3e 2b 08 05 be 8f 32 0f be 44 1f 9b 3c
       0.14131571 -0.12991397 -0.1398413 0.018935807
0000d0 5d 76 9a 3d 06 9b e7 bd f0 67 0a be 2a f4 e3 3c
       0.07542107 -0.11308865 -0.13516212 0.027826387
0000e0 9e be 6b be f5 8b c1 3d ca 16 14 be 39 cf 48 bd
       -0.23021933 0.09450523 -0.14461818 -0.049025748
0000f0 aa 9a 81 bc ec 11 c6 3d 4f 96 51 bd 6f a5 83 bd
       -0.01582082 0.09671387 -0.051168736 -0.06428038
000100 c3 14 8e 3d 9b e7 53 3e 90 c1 09 3e a9 20 b2 3a
       0.06937554 0.20693819 0.13452744 0.0013590056
000110 99 b8 db 3d c9 dd 90 bd 61 3b b6 3d 58 99 b8 bb
       0.107285686 -0.07073552 0.088980444 -0.0056335144
000120 2b 9c 26 be e1 35 99 bd 3b 9f 1a bc 6f bb 15 3e
       -0.16270511 -0.0748098 -0.009437378 0.14622281
000130 21 6c ff 3d 72 39 4a 3a 8d a9 d5 bd f4 86 84 bd
       0.12471796 0.00077142485 -0.1043273 -0.06471053
000140 92 84 fa bd 43 df c3 bd 22 8f 2b 3e 3d c1 10 ba
       -0.12232317 -0.09564068 0.1675382 -0.0005521959
000150 e5 ee 11 bb 1b 64 d6 3d 63 e5 8a 3d 94 23 78 3d
       -0.0022267636 0.10468312 0.06782033 0.060580805
000160 f3 16 41 bd 77 c8 16 3d 1d 18 c0 bd 4d 00 01 3e
       -0.047141027 0.036812272 -0.09379599 0.12597771
000170 44 f6 be bd 03 91 1d be 5b 12 4a 3c c0 ad 89 bd
       -0.09324315 -0.15387349 0.012333478 -0.06722593

fc.weight f4 [3, 32]
000000 42 28 2a be 95 2c 4d 3e e6 5f fd 3d f3 8a e3 bd
       -0.1661692 0.20036538 0.12371807 -0.11110487
000010 b1 0b f8 3d 24 8c 3e 3e b1 87 10 be d4 ef 1e 3c
       0.12111605 0.18608147 -0.14114262 0.009700734
000020 7b 66 45 be b6 2f 11 3e b4 9c 3e be 69 e6 a4 bd
       -0.19277374 0.14178357 -0.18614465 -0.0805176
000030 20 02 d3 bd d7 c7 e0 3d 9a 2b 24 be e4 8d 4b be
       -0.1030314 0.109756164 -0.16032258 -0.19878346
000040 be f4 8e 3d 9c 6f de bd b7 ad 67 3e ef 2f af bd
       0.069802746 -0.108611315 0.2262486 -0.085540645
000050 d6 d5 b7 bd 46 2a 7d 3d f4 9e 1d bb a2 12 de 3d
       -0.08976333 0.061807893 -0.0024051042 0.10843398
000060 b3 8f fd 3d f9 b4 93 3d 57 b8 5e 3d a2 10 26 be
       0.12380924 0.07212252 0.05437502 -0.16217282
000070 16 18 f5 bd 34 76 de bd 6a 02 7d 3d 70 93 0a 3e
       -0.11967485 -0.10862389 0.06176988 0.13532805
000080 6f 9e 3d 3d 62 ce f9 3d 4c 0c 06 3e 19 cb ff bd
       0.046293672 0.121975675 0.13090628 -0.1248991
000090 18 49 25 3e b8 69 60 3c 2b ed 07 bd 3b d8 c5 bd
       0.16141164 0.01369708 -0.033185165 -0.09660383
0000a0 28 1c d8 bd 8c 3c ac bd ea a9 50 bd bd a6 12 3e
       -0.105522454 -0.08409986 -0.050943293 0.14321418
0000b0 bc b1 23 3e 52 6a 3c be c2 19 f0 3b a0 e9 f0 bc
       0.15985769 -0.18399933 0.0073272893 -0.029408276
0000c0 cc 10 66 3c 2f 6a dd bd 0c 6f 45 3e ad 0c a3 bd
       0.014042091 -0.108112685 0.19280642 -0.07961402
0000d0 d4 22 88 bd 34 ad 26 3e 92 d8 33 be 94 bd 2a 3c
       -0.06647268 0.16277009 -0.17563084 0.0104211755
0000e0 96 3f 4a be 5b 4c 2f be 95 9a 4a 3d b8 fe 95 3d
       -0.19750819 -0.17118971 0.049463827 0.07323974
0000f0 b7 e2 bc bb b4 ed 18 be e0 41 0e be 83 8d eb bd
       -0.005764331 -0.14934427 -0.13892317 -0.115016006
000100 7f 59 42 be ab f3 98 bd 0b d8 0e 3e c1 f8 0c be
       -0.18979453 -0.07468351 0.13949601 -0.13766767
000110 a8 6c 18 3e 9d 46 21 bd 42 ae fc 3d f8 68 17 3e
       0.14885199 -0.039373983 0.123379245 0.14786136
000120 9a be 0f 3e 68 18 c4 3c 2a 41 5d 3e 6d 73 14 be
       0.14037552 0.023937419 0.2160689 -0.14497156
000130 40 08 91 3d db 88 f7 3d d2 80 e2 3c c6 c8 1a 3e
       0.07081652 0.1208665 0.027649317 0.15115651
000140 49 8c cd ba d6 0f b6 bd 9c ed 86 bc 29 a2 25 3e
       -0.0015682067 -0.08889739 -0.016470723 0.1617514
000150 0f 42 06 3e 23 c7 0a 3e f2 3a 9a bd 17 a5 78 bd
       0.13111137 0.13552527 -0.07530774 -0.060704317
000160 c6 c8 18 3e b9 91 bf bd 4c 1c c1 3d 51 e6 8a 3d
       0.14920339 -0.09353966 0.09429225 0.067822106
000170 26 ac 04 be ef 09 55 3e ee ae e4 3d de 20 32 be
       -0.12956294 0.2080457 0.11166178 -0.1739535

fc.bias f4 [3]
000000 8c 50 0b 3e b2 e1 b9 bd 97 ec 87 bd
       0.13604945 -0.09076251 -0.06636923
