backend/model/stgcn_traffic.pth (torch, 8524 bytes, 10 tensors)

gcn1.bias f4 [16]
00000000: 0000 0000 0000 0000 726e be3c 6646 edbc
00000010: 19d2 8cbd 5fcb babd 0000 0000 0000 0000
00000020: c23c 863d 0000 0000 af8c 8e3d 4bc7 813e
00000030: 9ddc 813d 4bbc 2e3e 0000 0000 ab13 81bd
0.0 0.0 0.023246024 -0.028964233 -0.068760104 -0.09120821 0.0 0.0
0.065545574 0.0 0.06960427 0.2534736 0.06340907 0.17064016 0.0 -0.063025795

gcn1.lin.weight f4 [16, 3]
00000000: 277d cdbe 4f14 af3e 8e32 f03d 3059 2ebe
00000010: af7e 073e 076a 8bbd fd60 933e 8186 7e3d
00000020: 1d85 023f 025f 9e3e eb9d 8abe 3500 ad3e
00000030: 5a44 e03d 9952 1cbf 50e0 c3bd 2778 3bbe
00000040: b750 b63d 4004 1dbf b9bc bbbd 432a babd
00000050: 0afc 06bf 445e c0be a9db d03e 94f0 91be
00000060: 4876 123e 8089 533d 3e61 99be 1ee8 0bbf
00000070: 14e0 07bf 23db 4c3e 30ac 193f 371a c33e
00000080: b901 d33e 0eff 0d3f 653f 80be 5931 633e
00000090: 8077 b13e 3ad0 013f c8a9 cabe fe26 0c3f
000000a0: c0df 82be fd68 bbbe f72b 3abe 6155 b73d
000000b0: 9df1 b8be 54c4 d63e 5a13 0dbe d38b c73e
-0.40134546 0.34195182 0.117283925 -0.1702621 0.1323192 -0.068073325 0.28784934 0.06213999
0.50984365 0.3093186 -0.27073607 0.3378922 0.10950537 -0.61063534 -0.095642686 -0.18307553
0.08902114 -0.6133461 -0.09166855 -0.09090092 -0.5272833 -0.3757192 0.40792587 -0.2850386
0.14302933 0.051644802 -0.29957002 -0.5465106 -0.5307629 0.20005469 0.6002836 0.38105938
0.41212252 0.5546731 -0.25048366 0.22186793 0.34661484 0.50708354 -0.39582658 0.54747
-0.25561333 -0.36603537 -0.18180834 0.089518316 -0.36121836 0.4194666 -0.13776913 0.38973865

gcn2.bias f4 [3]
00000000: 0000 0000 0000 0000 df88 b13d
0.0 0.0 0.08668684

gcn2.lin.weight f4 [3, 16]
00000000: f7fb 99be a5f8 5f3e a2f8 c4be 3503 0fbe
00000010: bdba 0dbf 7b1b 10bd 5fc8 b8be 5d1a 0fbf
00000020: 7b08 e83d 5abf ee3e 9412 b1be d5e8 99be
00000030: c9a4 483e d1f4 db3e da49 d2be dce4 03bf
00000040: 662e 9c3e 5178 0f3f ac96 febd 5329 04be
00000050: e82a 00be 0067 583e d832 2cbb 7cfd 31bd
00000060: fb76 60bd 4245 b73e eacf 09bf 167a 04be
00000070: b7ba 313e 38b3 be3d 1871 fe3e 8119 943e
00000080: 1c13 efbe 2ec1 2d3e 3985 973d 137e 7dbc
00000090: f223 8bbd ed89 d53d 8b8d b83d 660c 26be
000000a0: 63d6 de3e 3b7a d4bc 799f e93e 458c 9c3e
000000b0: a89c 9a3e 95a1 743e 6609 bdbe 5a42 b3be
-0.30075046 0.21872194 -0.38470942 -0.13966067 -0.55363065 -0.035182457 -0.3609037 -0.558996
0.113297425 0.46630365 -0.34584486 -0.3006045 0.1959411 0.42960218 -0.4107197 -0.51521087
0.3050415 0.56042963 -0.12431082 -0.12906389 -0.12516367 0.21133041 -0.0026275422 -0.043454632
-0.05480097 0.35795027 -0.53832877 -0.12937197 0.17356382 0.09311527 0.4969566 0.28925708
-0.46694267 0.16968223 0.07398457 -0.015471953 -0.067939654 0.10426698 0.09011372 -0.16215667
0.4352294 -0.02593719 0.4562948 0.30575767 0.30197644 0.23889764 -0.36921233 -0.3501156

gru.weight_ih_l0 f4 [48, 3]
00000000: 2829 593d 4c80 02be 48d7 04be 502c bebd
00000010: 402b 8abb c653 66bd 84e1 123e 74ae 3f3e
00000020: ac18 633d 2c66 2b3e 4e44 2a3e ee3d 95bd
00000030: 70dd 41bd a040 eebd a20b 7fbe 0030 c63b
00000040: 804e 8b3c 7e1f 973e c8d5 f13d d86c e6bd
00000050: 1d17 b73e d0c4 e43c 1e0d 313e 94ca 9cbd
00000060: 7893 25bd 00ff ed3b 3277 0c3c 1894 443d
00000070: 1c24 f23d 9a86 363e c827 19be ec7c 02be
00000080: 82d9 4b3d f2ec 51be 3087 60be d41d a83d
00000090: 8840 dbbd ac30 5d3e 0fa4 213e 6c38 bb3d
000000a0: 8c75 c53d cdb6 3d3e 78c7 35be ec27 03be
000000b0: 4d09 703e 407d 12bc c040 b23c a14c 223e
000000c0: 0e68 51be c4f0 9bbd ced8 05be c41e cdbd
000000d0: 7861 46be 043f 3abe d011 72be e002 59be
000000e0: 135a e2be 4eef 5e3e 7e2e 263e e764 80be
000000f0: c898 673e 40e7 dcbd 1994 823e 62af 5b3e
00000100: 4cd8 7b3e 62a1 03be d4ef ae3d 0437 dcbd
00000110: c74d ddbe c8d9 89bd 78c3 d3bd caf7 18be
00000120: 10ec 6ebd 0824 32be cf0d 0abf c093 15bc
00000130: 700d 22bd d2a0 94be c092 bb3c d0e5 2bbd
00000140: ecc1 0fbf b886 afbd 4c6d d73d d94c 33be
00000150: 8446 143e 7c38 c03d aba1 51be 1cf4 4e3e
00000160: 6010 cbbd a81a c1be a8fc 50be 08fc 3dbe
00000170: 5bbe f2bd 7aa3 74be e84d 24be 81c7 10bf
00000180: 987f 9e3d c03d 243d 6256 e33e 0074 59bb
00000190: 002d dcbb 5b79 983e c04e f23d 5028 3e3d
000001a0: 95cf a03e 0016 41bd 285a 09be d79d 68be
000001b0: 34c2 09be 60cb 1cbc f9da 913c 20eb 253e
000001c0: 4025 703c 96ec bc3e c23b 663e 9000 ac3c
000001d0: 87f8 4abe 66aa 03be 3200 083e 6b44 b03e
000001e0: 4897 7bbe be88 223e b2b8 adbe 521a 7a3e
000001f0: 9827 063d 42dc ea3d 7e67 29be 0034 3d3d
00000200: a95f c03e 98d9 cbbd 6a65 55be 3b7d 88be
00000210: 5c00 323e 248a 95bd 1e9f 53be b287 03be
00000220: da02 673e af25 29be ca92 71be bcae 3ebe
00000230: 6e9d 96be 9cdd 4bbe de6f 493e 4251 c9be
0.053017765 -0.12744254 -0.12972748 -0.09285796 -0.0042165816 -0.056232236 0.1434384 0.18718892
0.05544345 0.16738194 0.16627619 -0.07287203 -0.04733032 -0.1163342 -0.24906781 0.0060482025
0.017005205 0.29516214 0.11808354 -0.11251229 0.35759822 0.027925879 0.1729016 -0.07655826
-0.04042384 0.0072630644 0.00857334 0.047992796 0.118232936 0.17824784 -0.14956582 -0.12742966
0.04976798 -0.20500544 -0.2192657 0.08208814 -0.10705668 0.21600598 0.1578524 0.09141621
0.09641561 0.18526764 -0.17751873 -0.12808198 0.23441048 -0.008940995 0.02175939 0.15849544
-0.2044985 -0.07614282 -0.13070986 -0.10015634 -0.19373119 -0.18188101 -0.23639607 -0.21192503
-0.44209346 0.21770975 0.16228673 -0.25076982 0.22616875 -0.10786295 0.25503615 0.21453622
0.2459423 -0.12854531 0.08541837 -0.10752681 -0.43223402 -0.067309916 -0.10340017 -0.14938274
-0.058330595 -0.17396557 -0.5392732 -0.009129465 -0.039563596 -0.29028946 0.022897124 -0.041967213
-0.56155276 -0.085706174 0.105188936 -0.17509784 0.14480025 0.093857735 -0.20471828 0.20210308
-0.09915233 -0.3771565 -0.2040888 -0.18553174 -0.11852714 -0.23890486 -0.16045344 -0.5655442
0.0773918 0.040097952 0.44401842 -0.0033180714 -0.0067192316 0.29780087 0.118314266 0.046425164
0.31408373 -0.04714012 -0.13413298 -0.22716461 -0.13452989 -0.009569973 0.01780461 0.16202974
0.014657319 0.3689925 0.22483733 0.020996362 -0.19821368 -0.1285797 0.13281325 0.344272
-0.24569428 0.15872476 -0.33929974 0.24424103 0.032752603 0.11467792 -0.16543385 0.04619217
0.37572983 -0.09953612 -0.20839468 -0.26658043 0.1738295 -0.07301739 -0.20666167 -0.12844732
0.22559682 -0.16518281 -0.23591152 -0.18621343 -0.29416984 -0.19908756 0.1967158 -0.39319807

gru.weight_hh_l0 f4 [48, 16]
00000000: f3f3 0bbd 1c9e 4e3e 8cb7 113e 6ba1 8bbe
00000010: 9b85 27be 20b5 813e 7a49 5cbd 8244 ecbd
00000020: 9824 7ebe 2d4e 853d b717 c63d bada 53be
00000030: 3e38 b83d 08fa 80bd 29c6 783d fbb2 083e
00000040: 60e9 4d3d c402 c83c 4b52 9fbe c7a1 723c
00000050: fe88 0ebe e0e6 4bbe cb71 b8bd 8211 9fbe
00000060: 741a 313d 2146 82bd dbb4 26bd f9ec 913e
00000070: 76df 8b3e b1f5 5c3c c1b8 9a3e 6e04 d33d
00000080: d530 29bd 5ca0 663e 3c56 6f3e 2726 5bbe
00000090: fcf4 3e3d 4edc 8d3e d8b3 01be bbb2 8c3e
000000a0: 063c 8ebe 1e56 2ebb 3428 32bd 6db1 a4be
000000b0: a0b1 a6bd b6b9 87be 8aa2 ae3d 4fb3 85be
000000c0: 8dfd afbe 4c9d 6dbe 31f1 2dbe 3bad 2e3d
000000d0: 6188 d4bb 15b8 3a3d 85ad 933e 78a0 303d
000000e0: 01bb 443e d639 5abd 6ae7 2ebe 31eb 57bd
000000f0: a9aa 2f3e 649b a1bd d452 0d3b 5c66 223d
00000100: cca9 cb3d 40ea a4be 9a53 823e f847 403d
00000110: c00d 11be eaa7 58bd 4e94 9dbd 5340 d83c
00000120: e0fa 353e e9ed 833e b77b 5fbe 39bc 84be
00000130: 0f42 35bc 9eaa 953d 2fa1 52bd f1d7 333e
00000140: d319 aa3e f57a 2f3e 2f06 b1bd f235 34be
00000150: aeae eebd f608 1a3e 3463 963c 265b 663e
00000160: 9dbc c93c 7f83 963e bf93 433e b56b b4be
00000170: e158 09be 9ba9 4bbc 145d 6dbe 8a7a ae3d
00000180: 59be 6a3e 37ed 9f3d fa76 81bd 4b4a 77be
00000190: 8be3 713c 4eea 253e 02d9 aebe 849f 9a3e
000001a0: ec62 67bd 30a1 c83d 737a b93e e282 20be
000001b0: 2832 7bbe eb5c c0be 4e7c 85be 3aa9 55be
000001c0: ca59 3cbe 13b9 093d e01a 0b3e af5e 3dbd
000001d0: 343f 52be 9505 7e3e e1c3 863b 3895 133e
000001e0: d91b 79be 7ec9 cfbd c018 0abc 4342 85bc
000001f0: 747f 63be 0cb9 393e fe99 443e daee 803e
00000200: 3f9f 46bd 46c8 87bd a5c4 453e f6fc dcbe
00000210: 384e 9dbe c645 9c3e a2b0 febd 056a be3e
00000220: 07b6 533a 663a af3d 8700 b73e 1cb8 b1bd
00000230: edd5 dabd 494c 52be 0e4f a1be 7a91 9bbd
00000240: 3d57 303e d00c 333e f63e a43e cc70 f7bd
00000250: c612 c7be 2e63 303e 92cf d0be 6192 773d
00000260: f678 0abe 8966 c8bd 78ad 473e e6ea 953d
00000270: 0f18 f9bd b714 80be e1f0 41be bf68 8fbe
00000280: 0fbb 7d3e b69d 2fbd 3e40 b43e b327 8e3d
00000290: 9e86 68be 29f4 843e 0359 02be 305f 9e3e
000002a0: 6a79 cc3c c3a2 843e 3f19 463e 3b24 85be
000002b0: defa a33d 56f4 82be 6a72 3ebd 7928 703c
000002c0: 383d b13d a887 2d3d 8d2d 273e f5d0 d5be
000002d0: 3478 c1bd ab80 d43c 0b5c 9dbd ee3f b53e
000002e0: cca3 26bd 7b09 413d a4ae 583e ecf8 24bd
000002f0: 6a79 cb3c 2738 25bd 0550 313d 53a8 a7be
00000300: 2104 003e 6b5a 853e 9809 5c3d 22f8 2dbe
00000310: 4c72 fabd a534 dc3c ec28 a5be 32d3 2dbe
00000320: fb3f 2dbd 7471 e13e cc22 243e 6d96 b7be
00000330: 6ab1 0ebe f20b 313d ade0 95be 79b3 af3d
00000340: 875a 3d3e 0b03 b83e e6bc 023e 6ba3 dcbe
00000350: 52d3 a5bd 0417 9a3d c770 c4bd a0fb 9c3e
00000360: 7c91 b1be 87e1 173e d7c4 a03e 2bb8 a03c
00000370: 8c5b 80be 3f95 44be 0fe3 6bbe ec09 a8bd
00000380: 4571 0bbd 444d a93e 0d28 e03e aee9 cdbd
00000390: 98be adbe 0466 6abb 32df ef3b 5ee7 263d
000003a0: 8f4d a0bd 4a97 0f3e 4ab0 223e 1b1c 963d
000003b0: 9334 f73b c976 d3be df22 b5bc 93cc 97be
000003c0: ec4c 993c 0794 febd 6f44 b13d 8b76 f3bc
000003d0: b400 89bd 89d2 5c3e 12ce 45bc 634e 323e
000003e0: 0544 de3d 57e2 bd3e 925a 783e 529f c4be
000003f0: 8cea 11bc 1102 a9bd 7a96 53be b068 493d
-0.034168195 0.20177501 0.14230174 -0.2727159 -0.1635956 0.253335 -0.05378101 -0.11536504
-0.24818647 0.065090515 0.09672492 -0.20688906 0.08995102 -0.0629769 0.060735855 0.13349526
0.050271392 0.024415381 -0.31117472 0.014809079 -0.13919446 -0.1991229 -0.09006079 -0.31068045
0.04323812 -0.06361032 -0.04069982 0.28501108 0.27318925 0.013486312 0.3021908 0.10303579
-0.041306335 0.2252211 0.2337274 -0.21401273 0.046620354 0.27707142 -0.12666261 0.2748011
-0.2778017 -0.0026601623 -0.043495372 -0.32166615 -0.08139348 -0.26508874 0.085270956 -0.26113364
-0.3437313 -0.23204535 -0.16986538 0.042645674 -0.006485984 0.04558571 0.28843322 0.043121785
0.19211961 -0.053277813 -0.17080465 -0.05271453 0.17154945 -0.078909665 0.0021564262 0.0396484
0.099444956 -0.3220997 0.25454408 0.046943635 -0.14165401 -0.05289451 -0.076943025 0.02639786
0.17771482 0.2576745 -0.21824537 -0.25924852 -0.011063113 0.07307933 -0.051423248 0.17562844
0.33222827 0.17136748 -0.086437576 -0.17598704 -0.11654411 0.15042481 0.01835785 0.22495708
0.02462607 0.293972 0.1909933 -0.35238424 -0.13412811 -0.012430574 -0.23180038 0.08519466
0.22924174 0.07808917 -0.06321521 -0.24149434 0.014763723 0.16202661 -0.3414994 0.30199826
-0.056490824 0.09796369 0.36226234 -0.15674928 -0.24530852 -0.3757089 -0.260714 -0.20865336
-0.18393627 0.033623766 0.13584471 -0.046232875 -0.20531923 0.24806817 0.004112706 0.14412391
-0.2432703 -0.101458535 -0.008428752 -0.016266948 -0.22216588 0.18136996 0.19199368 0.2518223
-0.048491713 -0.06629996 0.19313295 -0.43161744 -0.3072374 0.30521983 -0.12436034 0.3719026
0.00080761354 0.085560605 0.3574259 -0.08677694 -0.10685334 -0.20536913 -0.31505626 -0.07596107
0.17220779 0.17485356 0.32079285 -0.12082061 -0.3888151 0.17225334 -0.40783364 0.060442332
-0.13522705 -0.09785182 0.19499767 0.07320194 -0.12162792 -0.25015804 -0.18939544 -0.28009602
0.24778388 -0.042875014 0.35205263 0.06941166 -0.22707602 0.2596753 -0.12729268 0.30931997
0.024960238 0.25905427 0.19345568 -0.26004204 0.080068335 -0.2557704 -0.046495833 0.014658087
0.08654255 0.0423657 0.1632597 -0.41760984 -0.09446755 0.02594026 -0.076835714 0.35400337
-0.040683553 0.047128182 0.2116037 -0.040276453 0.024838168 -0.040336754 0.043289203 -0.3274561
0.12501575 0.26045546 0.053720087 -0.16989186 -0.12228832 0.026880572 -0.32257783 -0.16975096
-0.042297345 0.4403187 0.16028899 -0.35856953 -0.13934866 0.043224283 -0.29272977 0.085791536
0.18491565 0.35939822 0.12767372 -0.43093428 -0.08096947 0.07523921 -0.09591823 0.30660725
-0.34681308 0.14832126 0.31400177 0.019619068 -0.25069845 -0.19197558 -0.23035835 -0.082050174
-0.03404357 0.33066761 0.43780556 -0.100543365 -0.33934474 -0.0035766372 0.007320308 0.040747993
-0.07827293 0.14022556 0.15887561 0.073295794 0.007544109 -0.41301563 -0.022111354 -0.29648265
0.018713437 -0.12430578 0.08655631 -0.029719612 -0.06689587 0.21564688 -0.012073057 0.17412715
0.108528174 0.37086746 0.242533 -0.38402802 -0.008906018 -0.08252347 -0.20662871 0.049172103

gru.bias_ih_l0 f4 [48]
00000000: c148 38be 45a8 96be cb5a d83d b338 ba3d
00000010: c314 34be aaf7 3bbd 87d4 e83e c88b 763e
00000020: e6b2 8c3d df2f bd3e a630 243e 87e2 033e
00000030: cafe 003e 329b ae3c 611d a03e d408 8d3d
00000040: 8231 b6be 66c1 9cbd 8479 8ebe b67f 0abf
00000050: 1314 5a3e 32ea 06bf 737c 59be 6ce5 dcbe
00000060: 5237 debe e9ed d1be 0c9d 8ebe 92a0 abbe
00000070: 7464 6abe e643 cebe 59d4 14bf 2b63 7ebe
00000080: f45a d03e 2698 0dbe 6809 9abd ce50 a1be
00000090: bc2c 963d 7d38 5f3e af26 42bd b855 203e
000000a0: 64c6 70be 7417 a13e e63c 993e 5415 14be
000000b0: bc23 9fbe 8f9e cbbe 82d8 40be 4d9e 9abe
-0.17996503 -0.29425254 0.105641924 0.09092846 -0.17586045 -0.045890488 0.45474645 0.2407676
0.0687006 0.36950585 0.16034183 0.12879382 0.12597194 0.021314237 0.31272414 0.068864495
-0.35584646 -0.07654075 -0.27827084 -0.5410112 0.2129672 -0.52701104 -0.2123888 -0.43143785
-0.4340158 -0.41001824 -0.27854192 -0.33520943 -0.22889882 -0.40286177 -0.58136517 -0.24842517
0.40694392 -0.13827571 -0.07521325 -0.31506962 0.07332751 0.21798892 -0.047400173 0.15657699
-0.2351318 0.31463206 0.29929274 -0.14461261 -0.3108195 -0.39769408 -0.18832591 -0.301989

gru.bias_hh_l0 f4 [48]
00000000: 1ebe 2b3e 500b 46bc 29d5 12bc 9cc6 083e
00000010: aca9 f23d 2c1a 9f3e 4adc 7dbc c147 0b3e
00000020: 7760 d63d 2490 403e 0a09 a8bd 79a8 693e
00000030: bd12 d03d 287d 413e a695 983d 8b9d 45bd
00000040: 4e6a fcbe 082e c53c aadf 52be 0559 6bbe
00000050: 94fc b33e 4d15 16bf f58c 2ebe 7088 febd
00000060: 4f40 f4be 235b 86be c440 eebe e54a afbd
00000070: 36ab c6be 8156 32be 569c 7fbe 7b15 94be
00000080: c02c 163d 1f4c fbbd 1be4 af3e fcd5 b63c
00000090: a2e5 a83d 05ea bf3e 4200 eebe 5320 9b3e
000000a0: eb51 b5be ca6a c43e dc6b 433e 54f8 3dbe
000000b0: 4237 47bd b4d8 81be 2ff7 f0be 4751 a6be
0.16771743 -0.012087658 -0.008961954 0.13357013 0.118487686 0.31074655 -0.015494416 0.1360159
0.10467618 0.18804985 -0.08204849 0.22818173 0.10159824 0.188954 0.07450418 -0.048245948
-0.49299854 0.024069801 -0.20593134 -0.22983177 0.3515364 -0.5862625 -0.17045958 -0.12428367
-0.47705314 -0.26241407 -0.46533787 -0.08559207 -0.388025 -0.17415811 -0.24961981 -0.28922638
0.03666377 -0.12270378 0.34353718 0.022318833 0.08246924 0.3748323 -0.46484572 0.302981
-0.3541406 0.38362724 0.19084114 -0.18551761 -0.048636682 -0.25360644 -0.47063586 -0.32483885

fc.weight f4 [3, 16]
00000000: 8f35 1e3f 911a 853e 6b3c 063f 379a 32bf
00000010: c4a1 55bd 31ab 0c3f 200d 3fbf 760a 693e
00000020: f42e 3abf 6811 233f bb99 313f df34 07bf
00000030: 254b 2bbf 210a 0fbf f41b 42bf 126a 34bf
00000040: b501 1b3f 801a 213f 8103 9d3e 8d8e b5be
00000050: d10e 483c 52bb 043f 84c9 20bf cde6 2a3f
00000060: 4501 bdbe b35a 123f e4e4 883e 109c fdbe
00000070: cf9f 97be 9e0b f8be 101e 0dbf 6f9d 1dbf
00000080: 8ec7 ba3d 60b8 a33e 62e0 0d3e 46b4 65be
00000090: cb37 6e3c c741 cbbd a6ac 033e d831 753e
000000a0: 1c2b 9dbe 7179 1ebe e8d6 c33d 02e4 68bd
000000b0: a943 26bd b543 5bbc 4a77 883e f411 003e
0.61800474 0.2599683 0.5243594 -0.69766563 -0.052156225 0.5494872 -0.746294 0.22757897
-0.72727895 0.63698435 0.693752 -0.5281505 -0.66911536 -0.5587483 -0.75823903 -0.7047435
0.6054948 0.6293106 0.30666736 -0.3546032 0.012210564 0.5184833 -0.6280749 0.66758424
-0.3691503 0.57169646 0.2673713 -0.4953313 -0.29614112 -0.48446363 -0.55123997 -0.6156835
0.09120093 0.31976604 0.13855127 -0.2243205 0.014539669 -0.099246554 0.12858829 0.23944795
-0.30696952 -0.15476014 0.095624745 -0.05685807 -0.04059187 -0.013382842 0.2665351 0.12506849

fc.bias f4 [3]
00000000: 0adc a63e 57f6 113f 09c4 97bd
0.3258975 0.5701651 -0.074104376
